deep_emotion-100-128-0.005.pt (torch, 276133 bytes, 24 tensors)

conv1.weight f4 [10, 1, 3, 3]
00000000: f051 403f da78 213f 583c 433f 7b64 f53d
00000010: b7f5 a73e bab5 ca3d 2dd4 8fbf 4f8e 76bf
00000020: 33f5 43bf ad35 843f 5873 77bd eb65 36bf
00000030: d593 8f3f 55f9 3b3c ca4e 67bf 02f0 1c3f
00000040: 6ed3 51bf 4015 5abe 20e1 a5bf 6991 6bbf
00000050: 9b75 3dbf 37b6 9fbd ec2c 9f3f 9e2c b43e
00000060: 5e6c 76be 9d72 d73e 3ed8 913f ab65 b4be
00000070: 1ab6 143f 2f6f 2b3f d1c4 c5bf 03c2 5ebe
00000080: 7c54 853f 4adc e5be d427 7f3e c899 8f3d
00000090: 1b20 29be 874b 0e3e 7f0c 22bd 94d7 61be
000000a0: b8b9 a53c 33d5 5cbc 1e66 8abc 4fe9 063e
000000b0: 8964 debd 93cc 053e e959 1c3f cb9c afbf
000000c0: 1610 783f abd0 673e cc5a 543e 38e2 9abf
000000d0: ba4c 72bf 2a21 ba3f d57e 80bf ca30 ab3e
000000e0: b53e 81bf a61b d9be f803 f53f c38a a23f
000000f0: c4e6 b5bd e564 50be 63be 51bf 3cae adbf
00000100: fa8c a4be 4727 103f 8bac 12bf 7939 cbbd
00000110: c76e 09bf a30a 493f e636 c83f 2aad a2bd
00000120: d3c3 2ebf 56b7 79be 3dc1 ef3c 6d41 6ebf
00000130: b3cd d9be 4fea 15be 94bc 4abc 15dd f13e
00000140: d29d 043f bda1 4fbf 072f 413f 0b7b 1abe
00000150: 91c6 5cbf 7191 0abe 1b00 9e3f ffdb 343e
00000160: cb81 efbe fd40 a83e
0.75125027 0.6307503 0.7626395 0.11982056 0.32804653 0.09897943 -1.1236626 -0.96310896
-0.7654602 1.032888 -0.060412735 -0.71249264 1.121699 0.01147302 -0.903546 0.6130372
-0.8196324 -0.21297169 -1.2959328 -0.92018753 -0.74007577 -0.077984266 1.2435584 0.3519029
-0.24064776 0.4207963 1.1394117 -0.35233817 0.58090365 0.6696653 -1.5450689 -0.21753697
1.0416408 -0.4489463 0.24917537 0.07011753 -0.16516154 0.13895999 -0.0395627 -0.22054893
0.02023016 -0.013478565 -0.016894396 0.13174938 -0.10859019 0.1306632 0.6107469 -1.3719724
0.96899545 0.22638194 0.20737761 -1.2100286 -0.94648325 1.4541371 -1.0038706 0.3343566
-1.0097262 -0.42403907 1.9141836 1.2698597 -0.08881906 -0.20350988 -0.8193113 -1.3568797
-0.32138807 0.5630993 -0.5729453 -0.099230714 -0.5368466 0.78531855 1.5641754 -0.07943185
-0.68267554 -0.24386343 0.029266948 -0.9306858 -0.4253975 -0.14640163 -0.012374062 0.47238985
0.51803315 -0.8110617 0.75462383 -0.15086 -0.8624049 -0.13532044 1.2343782 0.17662047
-0.46778712 0.32862082

conv1.bias f4 [10]
00000000: a562 8b3d 14d1 89be db57 05be 6fc5 6f3d
00000010: 6884 febe 36f4 6d3e 9b3e 903e 42ca aa3e
00000020: a827 11bf 2cc8 a13e
0.06805924 -0.26917326 -0.13021795 0.058537897 -0.49710393 0.2323769 0.28172764 0.33357435
-0.56701136 0.31598032

conv2.weight f4 [10, 10, 3, 3]
00000000: 086b a9bf 500b 59be 53b9 56bf be3e 52bf
00000010: f937 073d fd8d 13bf 9bce 993e dc06 acbe
00000020: 3365 2abf db27 95bf 87ee e2bf 6175 3abf
00000030: 0ce3 9e3f f043 4e3d d23c 833f f0b0 463f
00000040: 9953 643f d164 a83f edf3 863f 9b24 963e
00000050: 6807 aebf 2ff8 863a d4c8 82bd 980a b9bf
00000060: c674 753f 47d2 5d3f 9fdc 713e 1ac9 bf3c
00000070: 6de5 11bf d3f3 b4bf aba0 3b3e ff37 fcbe
00000080: 25a6 473e 37f5 7e3f ed8c 253f 6576 9b3f
00000090: 9ddd a93c 68b0 753d 3462 e3bd 389f 853b
000000a0: 3ab5 07be e526 2abe 46d9 213e f426 da3c
000000b0: b423 47bd 1b90 bf3e 65df 7dbe 730f 8ebe
000000c0: 8a1c 5b3f 49b8 14bf f996 bb3d 817d ae3f
000000d0: ba6b b6bf 9ff4 f33e 171f 44be 9e41 923e
000000e0: 01f3 ea3c 01c7 673c c942 253f 83a1 b0be
000000f0: 8320 acbe 085f 0f3e fa0b 5ebf 3a5b c83d
00000100: 1df2 a13e 5301 78bf 7b0d 0ebf 3f56 a43e
00000110: 351d afbf d1da 923e 8fc3 d23f 33c9 f53d
00000120: 6a97 2abe 0c13 6fbd 9c5f 303e 4a41 083f
00000130: 685f 27bf c797 c2bf aa73 b13f f744 703e
00000140: a5b2 71bf 2f6e edbc 991e 91be ccd9 79bd
00000150: d6c7 153f f578 fabe 5298 453e 8468 ff3e
00000160: f3cb 29bf 39bc af3e 7527 c1bd 0ba5 c6bd
00000170: e9dc c73c 240a fe3c f2b1 8cbc e1f0 2e3c
00000180: c884 b9bd f77a c7bb 39d4 3cbd f489 f2bd
00000190: dfe7 213d 2b2e d8bd 96c0 dbbd 075b 94bd
000001a0: 4d3a a53b ba11 a8bd 0cc2 b3bd 4136 57be
000001b0: 806c f939 73c5 20bd 0563 39bd 0b25 4cbe
000001c0: 7968 64bd fa5b 9b3c c876 12be 5edd b03d
000001d0: f9c0 bebc 3d77 b03c 70dd 80bd f590 3e3c
000001e0: ba17 813c 4838 29be 7fbd 5e3d 946c 6cbb
000001f0: f04c 46be 10c8 c63c fd3e 653d d01c 59bd
00000200: 475f 943d dc86 5e3c be69 24b9 6d88 3fbc
00000210: 8939 583c 8d3b dabd 6967 d1bd a1a4 01be
00000220: af53 6fbd 2004 f8bd 5516 dfbd 354b be3d
00000230: 152e 6bbd 3e6c 4abd 5066 f8bd ea34 03bd
00000240: 281c fcbd 5f0d e6bc 590c 80bd 5cff 013d
00000250: c1d9 b1bd 8ee9 993b a1ef 873d 6c1b 353d
00000260: 8a3d b3bc 44de afbb 885b a63c 3472 3e3d
00000270: 71ab 9a3b 7c89 dbbc d643 0bbe 5701 c5bd
00000280: 4c7a 9cbd 8e9b b1bd 02d5 02be 773b 17bd
00000290: ac2d a2bd eb9b c5bd f829 dc3c f300 6e3d
000002a0: 78c2 a8bd a79a 64bd d230 513d a433 a13c
000002b0: d28f d5bc 88dd 1c3d 7e07 87bd 8ae0 acbd
000002c0: 9133 15be 69f8 d3bd af34 593d 50c0 53bd
000002d0: b853 3e3f e63b 023f 21f9 f33e af57 0d3f
000002e0: 6349 b43e dbf0 163f f375 4d3f 11c7 153f
000002f0: 3488 843f 56ff f2bd 1d0d 72bf 4ee9 d9bf
00000300: 819c 87be 732b 01bf c78c dfbe 9aee 963e
00000310: 1c20 c13e 0ea3 72be d087 b4bf eb4b 8ebf
00000320: 7a40 f2bf 7bb1 cabf febe 5ebf 0e9f c5be
00000330: c7cd b9bd 4fdd 9c3e 3f4b 093f 0c8e 8fbf
00000340: cc43 81bd 96df 12bf 79a8 62be fa9e e7bc
00000350: 0afe 713e b5f4 17be 8894 80bc a1f2 1e3f
00000360: bf88 90be c0ec e9bd 2eaf 20bd 165f edbd
00000370: 4891 05bc e66d 893c 8754 293e 5922 613e
00000380: 603f 1ebd d569 303f 4e32 6ebe ee0f 03bf
00000390: f48f f33d 8949 ccbe 642b d23d e32d 1f3f
000003a0: 9588 cabd b3f3 043e bead 19be 7bf4 e33e
000003b0: 9c77 18be 9ce2 81bf 4a9f aa3a d4bf f1bb
000003c0: 8534 07be a5dc ae3e 7b63 d93e 3be8 b53e
000003d0: 5999 413f 4412 aebe 29ee 2a3f 3fba 173e
000003e0: 589c 76bf eda0 21bf bd30 44bf 62e9 a7bf
000003f0: 293d a7bf 814f 5abf 3d10 dbbe 9c38 bcbe
-1.3235788 -0.21195722 -0.8387653 -0.82126987 0.033012364 -0.5763853 0.3004044 -0.33598983
-0.6656067 -1.1652788 -1.7729043 -0.72835356 1.2413039 0.05035776 1.0252936 0.77613735
0.8919006 1.3155767 1.054319 0.29324803 -1.359601 0.0010297353 -0.06385961 -1.4456358
0.9588131 0.8664898 0.23619317 0.023411322 -0.569907 -1.4136909 0.18323009 -0.49261472
0.19496973 0.9959292 0.6466816 1.2145506 0.020735556 0.059982687 -0.11102715 0.0040778182
-0.13252726 -0.166164 0.1580554 0.026629902 -0.048618034 0.3741463 -0.2479225 -0.27746162
0.8559042 -0.58093697 0.09159655 1.3632051 -1.4251626 0.4764757 -0.19152485 0.28565687
0.028680326 0.014146567 0.6455503 -0.34498224 -0.33618554 0.14001095 -0.86737025 0.09783025
0.3163003 -0.9687702 -0.5548932 0.3209705 -1.3680788 0.2868257 1.646593 0.12001266
-0.16659322 -0.058367774 0.17223972 0.53224623 -0.65379953 -1.5202569 1.3863423 0.23463808
-0.94413215 -0.028983204 -0.28343657 -0.060998723 0.5850805 -0.48920408 0.19296387 0.49884427
-0.66326827 0.3432329 -0.09431354 -0.09699448 0.02439733 0.031010695 -0.017174695 0.010677547
-0.09058529 -0.0060876566 -0.04610083 -0.11842719 0.03952777 -0.10555681 -0.10730092 -0.072439246
0.0050423504 -0.08206506 -0.08777246 -0.2101679 0.0004757382 -0.039250802 -0.045260448 -0.19936006
-0.055763695 0.018964756 -0.14303124 0.086359724 -0.023285376 0.021541232 -0.06292236 0.01163124
0.015758384 -0.16525376 0.054379936 -0.003607546 -0.19365287 0.02426532 0.055968273 -0.053005993
0.07244735 0.013581958 -0.00015679651 -0.011690241 0.013197311 -0.1065589 -0.10224802 -0.12660457
-0.058429416 -0.12110162 -0.10892931 0.09291688 -0.057416994 -0.049419634 -0.121288896 -0.032032885
-0.12310058 -0.028082548 -0.06252355 0.03173767 -0.086841114 0.0046970313 0.066375025 0.044215605
-0.02187993 -0.0053670723 0.020307317 0.04649563 0.0047201444 -0.026798956 -0.13600096 -0.09619396
-0.07640514 -0.08672248 -0.12776569 -0.036921944 -0.079188675 -0.096488796 0.026875481 0.058106374
-0.08240217 -0.05581155 0.05107195 0.019677944 -0.026069555 0.038297206 -0.06593226 -0.08441265
-0.14570452 -0.10350115 0.05302876 -0.051697075 0.74346495 0.5087265 0.47651008 0.5521192
0.3521224 0.58961266 0.802581 0.58506876 1.0354066 -0.11865108 -0.9455126 -1.7024324
-0.2648659 -0.50456923 -0.43662092 0.29478914 0.3771981 -0.23695013 -1.4103947 -1.1116918
-1.8925927 -1.5835413 -0.8701018 -0.38597912 -0.09072452 0.30637595 0.5363044 -1.1215224
-0.06311759 -0.57372415 -0.2213458 -0.028274048 0.23632064 -0.14839442 -0.015695825 0.6208897
-0.2822933 -0.114221096 -0.039229564 -0.11590402 -0.0081523135 0.016776036 0.16536151 0.21985759
-0.038634658 0.68911487 -0.23261377 -0.5119618 0.11892691 -0.39899853 0.10262182 0.6217939
-0.09889332 0.12983589 -0.15007684 0.4452246 -0.14889377 -1.0147281 0.0013017443 -0.007377604
-0.13203628 0.34152713 0.4245871 0.3552874 0.75624615 -0.3399831 0.66769654 0.14817141
-0.9633231 -0.6313618 -0.7663687 -1.3118098 -1.306554 -0.85277563 -0.42785826 -0.3676194

conv2.bias f4 [10]
00000000: 49df ddbe ebad 8ebd a3cf 433c e508 063e
00000010: 4c02 2f3f 4f0c 34bf c0c3 64be 1e83 b3bc
00000020: 06d6 a8bc 05fe e2bd
-0.43334416 -0.06966766 0.01195136 0.1308933 0.6836288 -0.7033128 -0.22340298 -0.021913107
-0.020609867 -0.11083607

conv3.weight f4 [10, 10, 3, 3]
00000000: 4d5a 6d3e 4991 2f3d e405 8cbd ecfb e7be
00000010: e3f5 a53e d9af 4abf 8891 6dbe 6918 10bd
00000020: e35f 82bf 61b6 9fbd 9e99 a93c c43d 17bd
00000030: f4ce 953d fb75 d4bb f725 d23d a226 943c
00000040: e173 c4bc 8df9 15bd 3332 1b3f 427e 093d
00000050: 20e4 febe de5b a33e a2ad 28bb 879c 2c3e
00000060: 0ec9 1b3f 97ea 6b3d 13f7 bcbd c82f de3e
00000070: b506 823e d864 9a3e 6bf2 4b3f a38b 953f
00000080: b1ac 3d3f 631b 5dbe 05a8 41be 4802 92be
00000090: cbfb 893f 68bd a73e 00f3 a93f fcd9 e43e
000000a0: 6d78 dabd 3931 063e e712 c6bb 88d4 1c3f
000000b0: d0f6 883e 3acf 123f ff1e 783e 4eff 5fbe
000000c0: 6e1f 073f 40fe 04bf 1749 1fbf 7829 053f
000000d0: ba68 39be 779d 93be 6c33 883f 5878 943e
000000e0: dea7 083f 3805 193f 33d1 a63e 4a22 603f
000000f0: 4ea0 733f ee10 c03e 0822 c43e 15d8 a4bf
00000100: d74d 72bf 3f59 63bf e652 07bf 2006 fdbe
00000110: 950e 10bf ce2d 30bf c6f7 dcbe 8f68 1bbf
00000120: b2cf b23c fa27 8dbb c360 11bd 814c 893d
00000130: 6794 4fbd 07fc 51bd 9917 663d 6b2e 313d
00000140: 54b5 11bd 97cc 3ebd a828 69bc 6af2 b5bb
00000150: 9fee 6d3d f720 5ebd 9a0e 25bd 5a7d 573d
00000160: 01b5 0bbb 8b3e d73d 25e8 09be 6ab6 483d
00000170: 1071 a2bd be95 2abe b565 75bc 9348 e4bd
00000180: 8647 443b 7496 a23b 6124 ffbd c8d7 b9bd
00000190: d753 20bd f243 e0bd 6ce5 df3d 6a69 80bd
000001a0: afed 0bbd 3ee3 c4bc 452e 05be 462f 90bd
000001b0: e332 fdbd d20c febc 88f6 22be 288f 553c
000001c0: 2136 0a3b 0619 f5bd 573a 00be 3eae fabb
000001d0: 7f42 8bbd 60d8 ccbd d091 c1bd 4127 0bbe
000001e0: 50e0 9e3c 8db6 643d 9e71 e2bd 3789 9bbc
000001f0: 14c9 08be 7dc5 cabd e47a 793c 58a4 07bd
00000200: 5c9b 60bd 02d4 01bd bd91 db3c cc53 833d
00000210: 8789 39bd aeb9 ffbd 77ea 92bd aec7 33bd
00000220: aed5 87bd 2bcc bcbd 1efc 81bc 8c00 95bd
00000230: c5b7 263d 17b1 61bd f06f debd 6950 9ebb
00000240: 9175 66bd 2ad6 70bd ff4d b1be 7988 07be
00000250: 7d26 13be b02f 1ebe 9d9e 2e3d 0882 19bd
00000260: 2f20 76be c8f3 e8bd 0f86 eabd 6b87 8abe
00000270: c59e 2bbd 4137 923c 1178 6cbe 481f 87bd
00000280: 96b9 3ebd 9ffe 87be fc2a 933d 512e ee3c
00000290: 7a07 0ebd 8495 673d 932d 973d 7028 9fbc
000002a0: 1f23 a23c 3531 a83c 689e 123d d040 aebb
000002b0: 6b76 5c3d bc43 9cbc 0c20 743b c474 bdbd
000002c0: 6c31 d93c a68a 83bd acf5 ff37 e136 a63d
000002d0: 4015 bd3f 6032 7f3f 9114 c43f 9609 e43d
000002e0: 72b8 7ebd 2521 b83e 4582 2fbf 2bb2 5ebf
000002f0: eafe 4abd e46e 5d3a e8dd ad3d e518 c53d
00000300: 222c 7fbd f38a 36bd 2c2e fe3a 368d a23d
00000310: 10ca a43c 4eb7 a3bc e12b 56bf db0e 0bbf
00000320: eed5 abbf abe7 48bf b61c 81be 5922 7bbf
00000330: 8381 033f 542d c63e e1ff dd3e 3a9a 3e3f
00000340: 1f6b 103d 642d 2d3d 639c 0f3f f2ed 45be
00000350: 91da 81bf af29 183f c84d ef3d ed45 e6be
00000360: 7c42 9f3c ebab e8be b463 ecbe aeaf 4fbe
00000370: 478e 10bf 6a4e 3bbe 4455 61bf 6f92 093f
00000380: daa7 b63f 553b 263e 2ebf 27be 007e a8be
00000390: e8f5 81be 5aad 9bbe 44ab edbe a9e4 cb3e
000003a0: 48c6 a63d a7ca ea3e 1ec9 4e3f 5c0f 833e
000003b0: 6477 62bf dcfa 6d3f 7d72 623e c292 f63e
000003c0: ee27 cd3e 1e2d b33e 3b7a 20be 6161 7ebe
000003d0: 7433 a93e 8cd5 c03d f951 2c3f 2c67 893f
000003e0: 0daa 863f 1ee5 eb3e fd9b 293e 4393 c83e
000003f0: 6393 1cbd fac8 c43c a052 e4bd 72d3 9bbd
0.23178978 0.042863164 -0.06837061 -0.4530939 0.3241416 -0.7917457 -0.23200047 -0.03517953
-1.0185512 -0.07798458 0.020703133 -0.03692414 0.07314864 -0.006483791 0.102611475 0.018084828
-0.023981037 -0.036614943 0.6062347 0.033567674 -0.4978342 0.31906027 -0.002573826 0.16856585
0.6085366 0.05759677 -0.09226813 0.4339583 0.25395742 0.30155063 0.79666775 1.1683239
0.7409163 -0.21592478 -0.1891175 -0.28517365 1.0779966 0.32761693 1.3277283 0.4469756
-0.10667501 0.13104714 -0.006044734 0.61261797 0.26750803 0.5734745 0.24230574 -0.21874735
0.5278233 -0.51950455 -0.622209 0.520164 -0.18106356 -0.28831074 1.0640693 0.28998065
0.53381145 0.5977359 0.3258148 0.8755232 0.9516648 0.37512916 0.38307214 -1.2878443
-0.94650024 -0.88808054 -0.5286087 -0.49418736 -0.5627225 -0.6881989 -0.43157786 -0.6070642
0.021827552 -0.004307744 -0.03549267 0.06704045 -0.050678637 -0.051265743 0.05617485 0.04325716
-0.03557332 -0.04658183 -0.014230885 -0.0055525796 0.058088895 -0.054230656 -0.04029713 0.05260978
-0.0021317604 0.10509976 -0.13467462 0.04900209 -0.07931721 -0.16658685 -0.014977862 -0.11146655
0.0029949858 0.004961783 -0.124581106 -0.0907436 -0.039142456 -0.109504595 0.109324306 -0.06270106
-0.03416222 -0.024034139 -0.13005932 -0.07040267 -0.123632215 -0.031011973 -0.15914357 0.013034619
0.0021089392 -0.119676635 -0.12522255 -0.007650166 -0.067997925 -0.10002208 -0.0945164 -0.13589193
0.01939407 0.055838156 -0.11056827 -0.018986328 -0.13357955 -0.09900949 0.015227053 -0.033115715
-0.054835662 -0.031696327 0.026802892 0.06412467 -0.045297172 -0.124865875 -0.07173627 -0.0438916
-0.06632553 -0.092186294 -0.01586729 -0.07275495 0.0407026 -0.055100527 -0.10861194 -0.004831363
-0.056264464 -0.058797993 -0.3462982 -0.13235654 -0.14370151 -0.15447879 0.042631734 -0.037477523
-0.24035715 -0.113746226 -0.11451351 -0.2705644 -0.04189946 0.017848613 -0.23092677 -0.06597763
-0.046563707 -0.26561448 0.07185933 0.02907482 -0.0346751 0.056539074 0.073817395 -0.019428462
0.019792138 0.020531276 0.0357956 -0.005317785 0.05382387 -0.019075267 0.0037250547 -0.09250787
0.026512824 -0.064229295 3.0512769e-05 0.08115936 1.477211 0.9968624 1.5318776 0.11134641
-0.06218762 0.35962787 -0.6855815 -0.8699061 -0.04955951 0.0008447005 0.08489591 0.09623889
-0.062297948 -0.044566106 0.0019392422 0.0793709 0.020115882 -0.019984867 -0.83660704 -0.5431954
-1.3424661 -0.784785 -0.25217217 -0.98099285 0.51369494 0.38706458 0.43359283 0.7445408
0.03525841 0.042279616 0.56098 -0.1932905 -1.0144826 0.59438604 0.116847575 -0.44975224
0.019440882 -0.45443663 -0.46169817 -0.2028186 -0.564671 -0.18291631 -0.8802073 0.53739065
1.4269974 0.16233571 -0.16381523 -0.3290863 -0.25382924 -0.30405694 -0.46419728 0.3982289
0.08143288 0.45857736 0.8077563 0.25597656 -0.88463426 0.92960906 0.22113986 0.48158842
0.40069526 0.3499536 -0.15671627 -0.24841835 0.33047068 0.09415731 0.6731258 1.073461
1.0520645 0.4607324 0.16563411 0.39174852 -0.038226496 0.024021614 -0.11148572 -0.07608689

conv3.bias f4 [10]
00000000: f675 9740 72bb 1dbe a337 1240 1881 2a40
00000010: 17e9 e0bf 443d 5640 812d a23f e244 5340
00000020: 6c23 fe3e fb08 7940
4.7331495 -0.15403536 2.2846458 2.6641293 -1.7571133 3.3474894 1.2670137 3.3010793
0.496364 3.8911731

conv4.weight f4 [10, 10, 3, 3]
00000000: 95e0 ac3e 3f55 86bf e4e3 b2bf 5eda 143f
00000010: 46c8 e2bd 5949 ce3c a596 8e3f b7b8 be3e
00000020: 9896 3dbf 3ff9 92bb d9ee 193d 34a2 ab3c
00000030: a954 91bd 6b81 29bd 76dd 02bc 645c 54b9
00000040: 7d8a 4cbd 5928 28bd 1e09 8b3d 5b7a 4cbe
00000050: f6b2 50bf a0d8 13bf 5949 63bf f401 dbbf
00000060: 5861 aabe 575b e8bf a87d 18be b444 b0bf
00000070: 2e95 17bf 0472 7f3d b9ab 6dbf 26c3 f0bc
00000080: f17b 153f b98d 82bf 5c13 e8be e7db 403f
00000090: 8058 40bf 9f3a 49bf b0af 46bf 22db 0bbf
000000a0: b7e6 b0bf e7b5 ddbe 128f 8abf 71a0 8fbf
000000b0: 7199 fa3e d808 2dbf c94d 163f ba11 203f
000000c0: 53a2 f8be 7a84 f93c 4774 1bbd 51ae 75bf
000000d0: 7e0b 62bf 89b6 1d3f a433 0ebe fc64 fd3d
000000e0: 6854 63bf de2b 143f 3085 f1be 96c1 ddbf
000000f0: f22c b7be 9d38 e2bf 8596 abbf 966d 1a3d
00000100: fb0c f2be 9fd9 b93e 2829 73bf 3a8c fd3e
00000110: 34f7 b93e 3889 31be eedc 9c3f 999c 603f
00000120: 9124 91be e983 d7bc 7515 a93f 9793 6e3f
00000130: 0562 893f c458 603f 2f54 0a3f 202e f83e
00000140: 88b2 4a3f 4a24 903f d63c ee3e caa6 cd3e
00000150: 8c95 f83c d4b6 abbd 1493 8bbe 033f e03e
00000160: ed0a 41bd 93fd 9a3e 04d1 03bf 8162 9d3c
00000170: 3793 593f 5f67 d1be 0e34 8fbf 02e6 00bf
00000180: 6e4c 5e3f ec0e abbe af36 94bf e9c2 78bd
00000190: 25c7 94bd c941 cfbd fa5e a43c ae42 963d
000001a0: 5f2d 85bd 8354 543d a063 173d c8a2 583d
000001b0: 8b7b 0cbf a172 03bf 7343 3cbf 16a4 48bf
000001c0: 9b95 04bf db71 e4be 726f c03e 4a32 82be
000001d0: c1d1 79be 0b8a c93f c284 993d df20 bcbe
000001e0: 29ae 6f3f 458a fabe bdec 9cbd c2b3 bcbe
000001f0: f9e4 3cbf 786c a4bf 24d8 aabe a094 e93e
00000200: 3e37 623d 1279 b9bf 1674 bebf 0001 99bf
00000210: f82b adbe 60a4 9ebf 0881 d5be 8601 863e
00000220: a4b6 133e eddd 27bf 5fa3 d83e f373 023f
00000230: fc90 8b3e 5878 d8bc 97d6 803e 5565 b1bd
00000240: c57e aabf 66a4 a0bf be02 80bf 1c7f b2bd
00000250: 2a69 06bb 71ff 8bbe 3729 8dbf bc01 c4be
00000260: 2b5b 9ebc ac6b 7d3f 87db 753f cc3e 02c0
00000270: 005a 89bf 66a3 95bf 90fe 0bc0 b3ea 63bf
00000280: 1cc9 a9bf d382 edbf 3d14 2e3f f168 91bc
00000290: 8f21 193f 03e5 ea3d d023 b9bd c2bc 3cbf
000002a0: 783b adbf 417c 86bf 8f1f 56bf b0a1 dcbe
000002b0: 3d6d 8e3e c772 b33f 6da9 85be 9595 f43e
000002c0: ded5 663f 9d88 acbf 151e 90be e0d6 ec3e
000002d0: d9aa d2be 2b20 523f e357 9b3f a45a 95be
000002e0: 3cab b9be 8a97 fb3e 74e4 5cbf a65f 6cbf
000002f0: b2c7 79bf 1b06 b6bd d694 2a3d 6965 adbd
00000300: 1281 213d 7c2b cf3b 6dfd e3bd ed99 4abd
00000310: 6c12 f6bb e10d 993c de51 903e b214 03bf
00000320: e643 65be 5cdf 893c 7cad eabe a165 8dbe
00000330: 741a 663f d336 123f 1097 9d3e 9429 1a3e
00000340: b3a1 2cbf f913 00c0 8b07 b1be ead4 3dbf
00000350: 2295 54bf d298 2cbf 81cb febe 32ec d8be
00000360: ade2 0cbf fdde 8abf fbea 64bf 7661 023f
00000370: aefc d13e 1dad 8a3e 7128 283f a41c df3d
00000380: 08c0 eebd 2dbd f53d 2637 f0be f6fa b7be
00000390: 3566 86be d246 243e 6587 5cbf 1471 4fbf
000003a0: a4eb 6fbf 994e 5ebf a6e3 53bf 40c2 66bf
000003b0: e49a dcbe ec1d 20bf 1efa 0a3e 503c 0fbf
000003c0: 0805 ddbf 657b d9bf fc70 e4bf cc82 93bf
000003d0: b4a2 96bf d985 19c0 a33c 4dbf ce96 17bf
000003e0: d3ca e8be c884 0fbf 186c ffbe e0ab 5ebf
000003f0: 11ad 14bf 4c8f acbe 2625 7fbf 113d 27be
0.33765092 -1.0494765 -1.3975797 0.581457 -0.110733554 0.02518146 1.1139723 0.372503
-0.7405791 -0.004485279 0.0375813 0.020951368 -0.07096226 -0.04138319 -0.007987371 -0.00020252314
-0.04993676 -0.041054104 0.06788848 -0.1996855 -0.8152307 -0.5775242 -0.88783795 -1.7109971
-0.33277392 -1.8152875 -0.14891684 -1.3770967 -0.59212005 0.062364593 -0.9284015 -0.029389929
0.58392245 -1.01995 -0.4532727 0.75335544 -0.7513504 -0.78605074 -0.7761183 -0.54631245
-1.3820409 -0.43302843 -1.0824912 -1.1220838 0.48945192 -0.6759162 0.5871244 0.6252705
-0.48561344 0.030458678 -0.037952688 -0.9596911 -0.88298786 0.6160665 -0.13886887 0.12372777
-0.8880067 0.57879436 -0.47171926 -1.7324703 -0.35776478 -1.7673527 -1.340531 0.037702166
-0.47275528 0.36298844 -0.94984674 0.49521047 0.36321414 -0.17337501 1.2254922 0.8773895
-0.2834821 -0.026308017 1.3209673 0.93193954 1.0733038 0.87635446 0.54034704 0.4847269
0.7917867 1.1261075 0.4653079 0.40166312 0.030344747 -0.08384481 -0.2726065 0.43798074
-0.04712956 0.30271587 -0.5149081 0.01921201 0.8499026 -0.40899178 -1.1187761 -0.50350964
0.8683537 -0.33409822 -1.1579188 -0.060732756 -0.07264546 -0.101199694 0.02006482 0.07336937
-0.065027945 0.05183841 0.036960244 0.052889615 -0.5487601 -0.51346785 -0.7354042 -0.78375375
-0.5179078 -0.44618115 0.37585026 -0.25428993 -0.24396421 1.5745252 0.07496025 -0.3674383
0.9362512 -0.48933616 -0.07662342 -0.36855894 -0.73786885 -1.2845602 -0.33368027 0.45621204
0.055228464 -1.4490073 -1.4879177 -1.195343 -0.33822608 -1.2393913 -0.41700006 0.26173037
0.1442514 -0.65573007 0.42312142 0.50958174 0.27259052 -0.026424572 0.2516372 -0.08661906
-1.3319937 -1.255017 -1.0000837 -0.087156504 -0.002050946 -0.27343324 -1.1028203 -0.38282573
-0.019330582 0.9899242 0.960381 -2.0350828 -1.0730591 -1.169049 -2.1874123 -0.8903
-1.3264499 -1.8555549 0.6799963 -0.017750235 0.5981683 0.11469462 -0.09040034 -0.7372552
-1.3533773 -1.0506669 -0.83641905 -0.43092108 0.27817717 1.4019402 -0.26105824 0.47770372
0.90170085 -1.3479191 -0.2814795 0.46257687 -0.4114597 0.82080334 1.2136196 -0.29170716
-0.36263454 0.49139053 -0.8628609 -0.9233345 -0.97570336 -0.08887883 0.041645847 -0.08466608
0.03942973 0.0063223224 -0.111323215 -0.0494632 -0.0075095203 0.018683376 0.2818746 -0.51203454
-0.22389182 0.016830139 -0.45835483 -0.276166 0.89884114 0.57114905 0.30779314 0.15054923
-0.67434233 -2.001219 -0.34576067 -0.74153006 -0.8304006 -0.67420685 -0.49764636 -0.42367703
-0.5503338 -1.0849301 -0.8942105 0.50929964 0.41013092 0.270852 0.6568671 0.10894135
-0.11657721 0.11998973 -0.46917075 -0.35933656 -0.26249853 0.16042641 -0.86144096 -0.8103192
-0.93718934 -0.8683868 -0.8276924 -0.9014015 -0.43086922 -0.6254566 0.13571975 -0.55951405
-1.726716 -1.6990782 -1.784698 -1.1524291 -1.1768403 -2.3987944 -0.8017065 -0.59214485
-0.45467243 -0.56061983 -0.49887156 -0.8698101 -0.5807658 -0.33703077 -0.9966606 -0.16331889

conv4.bias f4 [10]
00000000: 58b8 57be fca9 52be c7e8 f8bd 33ea 8abc
00000010: 7cf5 1abd feb1 cdbd ad1a 22be 2751 ff3d
00000020: 81ea 5abd 35f2 a0be
-0.21066415 -0.20572656 -0.12153774 -0.016957378 -0.03783177 -0.10043715 -0.15830489 0.124666505
-0.053446297 -0.3143479

norm.weight f4 [10]
00000000: ad4e 133f 7ff2 c83e 9d84 5c3e 5ec1 883e
00000010: fad1 8f3e 3c40 6a3e 5a9e a73e 3c17 833e
00000020: a087 643e fd84 c33e
0.57541925 0.3924751 0.21534963 0.26710027 0.28089887 0.22876066 0.32738 0.25603664
0.22317362 0.381874

norm.bias f4 [10]
00000000: bf27 02bf f37f a5be e414 2ebe 02c1 4ebe
00000010: fa7e 92be 125a 87be 2d55 b1be 6992 9cbe
00000020: dd23 7abe 805b bfbe
-0.508419 -0.3232418 -0.17000157 -0.20190814 -0.286125 -0.26435906 -0.34635296 -0.30580452
-0.24427743 -0.37374496

norm.running_mean f4 [10]
00000000: faa3 07c3 1ccf 14c3 38ad efc2 d462 9dc2
00000010: 61f5 cdc2 9f55 c9c2 02e7 d9c2 2baf 83c2
00000020: 5b80 42c2 4881 acc2
-135.64053 -148.80902 -119.83832 -78.69302 -102.979256 -100.66723 -108.95119 -65.842125
-48.625347 -86.2525

norm.running_var f4 [10]
00000000: 9451 1e46 acff 2746 e1d5 b445 1ed2 e645
00000010: 7f41 af45 2ea1 c945 36a2 df45 e339 3745
00000020: 91c3 2645 f387 a845
10132.395 10751.918 5786.735 7386.2646 5608.187 6452.1475 7156.2764 2931.618
2668.223 5392.9937

fc1.weight f4 [50, 810]
00000000: 751a f8bc 6c08 30bd ed0e aebc 5f25 0dbd
00000010: 4f38 92bd 839c b9bc 8515 6f3c e99e 18bc
00000020: c494 1fbd 34c0 afbd 515e 06bd 5c9e 73bb
00000030: c7e9 e63c e872 4abc 17a4 073c 27ae d13c
00000040: 136b 0dbd cfeb a93b 92e3 94bd 17fc 01bd
00000050: 8bfd 79bd 4d75 c3bc bb37 2a3b 16a0 823b
00000060: 52e3 85bd 53ed 34bd fe85 2fbd 3129 b5bd
00000070: 76e0 79bd f429 75bd 3183 4ebd dbe4 c8bb
00000080: 8149 2c3c f2cd 8cbd cd68 e6bc 94f8 17bd
00000090: 77b7 98bc f220 5c3c b9a4 6abd 4915 1ebd
000000a0: 0fdd 03bd 5893 56bd 546c 36bd 41d4 80bd
000000b0: 10e3 a7bd 5ac1 0c3d 3d4d 72bd 0041 fe3b
000000c0: 95cc 21bd 62f6 ebbc ee9a 2cbc 5450 2bbc
000000d0: 2dfe 8d3b 5ae9 5ebd 9f3d 5c3c 43df a7bc
000000e0: 46ad e33c 5e93 9739 8c74 aabd 6429 db3b
000000f0: 8bbe f33b dc9f b63b 6689 d5bd f4ca 01bd
00000100: b272 72bd e532 13bc 4fc2 1b3c 3d8f 8abd
00000110: 5910 ebbc 8c68 93bc 1f78 fcbc 9c56 e7bc
00000120: 897e 103d 7d4a 69bd 3150 a9bb 79e6 f5bb
00000130: 0d67 7b3c 0c76 9ebb d4de 373c 5fe9 ebbd
00000140: 75f2 93bd ba86 9ebd 2762 44bc 34fd 9d3c
00000150: 2d76 83bd 3a2e cfbd 92e4 04bd e4ca 3bba
00000160: fbb0 3d3d 5569 9d3c bb09 8ebc 9a0d 62bd
00000170: 74be 18bd 1de1 26bd 7d1c 77bd e7fb f0ba
00000180: 268c a5bc d28b ddba 0527 adbc d91f 44bd
00000190: 5911 dfbc 7250 46bd 64cf 053d d70a 0bbd
000001a0: dcdc c6bc e148 1bbd 471f 67bc 2b0c 8cbc
000001b0: e136 11bd 972b 2ebc 7de6 10bd 6f24 5ebd
000001c0: d21c f5bb d806 67bc ce91 f9bc a06f 9bbb
000001d0: 9f72 86bb 6014 ec3c 2281 483c 0594 373c
000001e0: a8c5 a7ba 675e a33c df11 3dbd 2a6b 01bd
000001f0: 9656 a3bd e7d5 11bb 8d77 763d 1968 9d3c
00000200: 3907 07bd 02cb ecbc 350c 6f3c fb32 003d
00000210: ecf9 833c 7462 31bd 6b28 a4bd 58a3 c03c
00000220: 6cba 363b 37b7 2cbd 2bef 60bd dde9 51bd
00000230: 41c6 0ebd e083 ebbc ecd1 30bd 3790 07bd
00000240: e48e a2bc 1751 a0bd 87f6 d6bc 7262 39bd
00000250: ffd7 d5bc 93f6 31bc b29e 05bd 62dc 9a3b
00000260: dda2 e7bc 84ff 1fbd 86e9 70bd dbb6 80bd
00000270: de75 4ebd 75c2 afbc e083 80bd 09f6 3fbd
00000280: 32a7 4ebd e8d1 4fbd e5a6 37bc cc1e 83bd
00000290: 0035 25bd 13c5 4fbd 6f6b db3a 4567 a5bc
000002a0: 4cf6 b4bc 5bf0 84bc 91c5 303d bd76 05bd
000002b0: de7b 01bb b017 e93a 3bd3 66bc 6d45 8abc
000002c0: 4dbc 473c e1ea 7fbd d0da ebbd 9410 1fbd
000002d0: 2a99 1cbc 38dd 8cbc 50d7 1bbd ba50 dd3c
000002e0: 843a 21bd 032d 6abc 938c 803c c25b f4bb
000002f0: 5e5b abbd 63dc bfbc c708 493d de99 b5bb
00000300: 18ea 03bd cd46 7bbb cc80 30bc cd88 4abd
00000310: 3412 35bd eea8 dcbc 9d30 80bd ffaf 82bc
00000320: 4f5d 81bd 0396 0abd 2862 9cbd d0d5 d7bc
00000330: 038d 85bc a2df 5fbd d92d e2bb da69 413b
00000340: 8ec0 6dbd 45cb e1bb 883b febc 8aa2 dfbb
00000350: 1625 5dbc 760f d5bc ba9b ccbb 9ad3 b2bc
00000360: 2af2 81bc 272e f23a 9b0f 02bc d0d7 85ba
00000370: bfd1 ad39 843c b5bc 19d2 68bd c473 8dbc
00000380: effd 1b39 7534 1f3d 3eb0 4cbd 3684 80bd
00000390: eb07 a63b 7fe6 0c3b 9786 65bc a64f c2bc
000003a0: 339b b6bc cefa 963c 5431 68bd 8269 35bd
000003b0: b059 d93b 72e1 05bc b14d b23b d4c5 453b
000003c0: 1c94 de3b b5dc 84bd 8b04 91bc f249 c9bc
000003d0: 0e23 33bd 9fc8 823c 661c d03a b3a9 55bc
000003e0: 2081 103d e0bd 283c d439 a6bb 9397 01be
000003f0: 9fa2 3ebd ead5 43bd 5482 6bbd 609f 50bd
-0.030286053 -0.04297678 -0.021247352 -0.034459468 -0.07139646 -0.022657638 0.014592533 -0.009315231
-0.038960233 -0.08581582 -0.03280479 -0.0037173247 0.028187646 -0.012356497 0.008278868 0.025595738
-0.034525942 0.0051855813 -0.07269968 -0.031734552 -0.061032813 -0.023859644 0.002597316 0.003986369
-0.065374985 -0.044171643 -0.042852394 -0.08845747 -0.06100508 -0.059854463 -0.050418083 -0.0061307973
0.010515572 -0.068752185 -0.028126145 -0.037102297 -0.01864217 0.013435589 -0.057285998 -0.038594518
-0.03219324 -0.05238661 -0.044536904 -0.06290484 -0.081976056 0.034364082 -0.05915569 0.0077592134
-0.039501745 -0.028804008 -0.010534985 -0.010456163 0.0043332786 -0.05442176 0.013442426 -0.020492202
0.027792584 0.00028910761 -0.08323011 0.0066882838 0.007438486 0.005573256 -0.10426597 -0.03168769
-0.059191413 -0.008984302 0.009506776 -0.06765602 -0.028694319 -0.017994188 -0.030818997 -0.02823954
0.035276923 -0.056955803 -0.0051670303 -0.007504281 0.015344393 -0.0048358496 0.01122256 -0.115191214
-0.072239794 -0.07740541 -0.011986292 0.019285776 -0.064190246 -0.10116239 -0.032444544 -0.0007163717
0.04631136 0.019215265 -0.017338624 -0.055188753 -0.037291005 -0.04074203 -0.060329903 -0.001838562
-0.02020843 -0.0016902632 -0.02113677 -0.047881935 -0.027229952 -0.048416562 0.032668486 -0.033945885
-0.024275236 -0.0379113 -0.014106578 -0.017095646 -0.035452727 -0.01063051 -0.03537606 -0.054233965
-0.0074802423 -0.014100753 -0.030465033 -0.0047435313 -0.0041030194 0.02881831 0.012237819 0.011204724
-0.0012799995 0.019942475 -0.04615962 -0.03159634 -0.07975499 -0.002225274 0.060172606 0.019214677
-0.032965872 -0.028905395 0.014590313 0.03129862 0.016110383 -0.043306783 -0.080155216 0.023515388
0.0027882112 -0.042166915 -0.05491559 -0.05124842 -0.03485704 -0.028749406 -0.043168947 -0.03309652
-0.019843526 -0.07827967 -0.0262406 -0.0452599 -0.026103972 -0.0108620105 -0.032622047 0.0047259787
-0.028275901 -0.039062038 -0.058816455 -0.06284877 -0.050405376 -0.021455029 -0.06275153 -0.046865497
-0.05045242 -0.05073729 -0.011209224 -0.064023584 -0.040333748 -0.050725054 0.0016740392 -0.020190844
-0.0220901 -0.016227892 0.043157164 -0.03258394 -0.0019757668 0.0017783549 -0.014088447 -0.016878808
0.0121908905 -0.062479857 -0.115163445 -0.03883417 -0.0095580015 -0.01719533 -0.038047135 0.027016032
-0.039362445 -0.014292958 0.015692031 -0.0074572274 -0.08367036 -0.023420518 0.049080636 -0.005542024
-0.03220567 -0.003834176 -0.010772895 -0.04944687 -0.044206813 -0.02693602 -0.06259272 -0.015953062
-0.06316625 -0.03383447 -0.07635909 -0.026347071 -0.016302591 -0.054656632 -0.006902438 0.0029512555
-0.058044963 -0.0068906867 -0.031034246 -0.006824796 -0.0134976115 -0.026008349 -0.00624415 -0.021829415
-0.015862543 0.0018476889 -0.007938291 -0.0010211412 0.00033153404 -0.022123583 -0.05684099 -0.017267115
0.0001487655 0.038868386 -0.049972765 -0.06275217 0.005066862 0.002149969 -0.0140091395 -0.02371962
-0.022290802 0.01843014 -0.056687668 -0.044290073 0.006633006 -0.008171426 0.0054413904 0.003017773
0.0067925584 -0.06487409 -0.017702362 -0.024571393 -0.043734603 0.015964804 0.0015877604 -0.013040948
0.035279393 0.010299176 -0.0050728116 -0.12655477 -0.046541806 -0.047811426 -0.057497337 -0.05093324

fc1.bias f4 [50]
00000000: 16c0 19be a68e 663f f058 aa3f e7e9 78bd
00000010: 1e33 58bd 8930 253f 171e 29be 479f 79bd
00000020: 6b1d 7dbd 86dd 973f c732 733f 968e 33be
00000030: e5a3 37be e5e4 8f3f 3e47 96be 6655 0f3f
00000040: c14c 7bbd 44f4 1bbe fd65 a93f 47f3 a03f
00000050: 9a7b 0f40 7e1b 34bd 3410 b73f 2bf1 58be
00000060: 91bc 99be cffb f5be 5002 a63e ef97 0ebc
00000070: f664 16bd 8b64 5abd 58be 633f e831 403f
00000080: 2b56 9d3e fb7a c1bd abac d8be fb33 373f
00000090: 63fc 21bd f155 92bd 62fb 823f 4411 30bd
000000a0: 0993 a9bd c144 09be cd20 64bd 4302 bd3e
000000b0: d619 22bf 544b b0bd fb1a ba3f 3184 88bc
000000c0: 12d7 7e3f ab43 a93f
-0.15014681 0.90061414 1.3308392 -0.06076994 -0.052783124 0.64527184 -0.16515385 -0.060942914
-0.061795633 1.1864479 0.94999355 -0.17534861 -0.17933615 1.1241728 -0.29351228 0.5598968
-0.061352495 -0.15229899 1.3234249 1.2574242 2.241919 -0.04397153 1.430182 -0.21185748
-0.30026677 -0.48043677 0.3242364 -0.008703216 -0.036717378 -0.05331854 0.88962317 0.7507615
0.30729803 -0.09447285 -0.42319235 0.7156369 -0.039547335 -0.07145298 1.0232966 -0.042985216
-0.08279998 -0.13405134 -0.055695344 0.36915788 -0.6332067 -0.08608118 1.4539484 -0.016664596
0.9954692 1.3223776

fc2.weight f4 [7, 50]
00000000: 91cc 1e3d b3ff 29be 72d9 91be 2a3b a7bf
00000010: 2963 843d bb30 b6be e1c9 053e a7ec 203d
00000020: eae7 c93d 9c5d 30bc 9753 45be 3be8 49bd
00000030: 9fba 223d e525 e1bd 8025 1fbc 0455 96be
00000040: 1e13 fc3c c275 a6bd 169e 9b3e d804 6fbe
00000050: 77ca 143e 8716 c83d e8eb 223e 765e eabd
00000060: 0f07 0d3e f060 8cbe f18a 2abe 632f d6bd
00000070: 9f78 3ebd 46b4 eb3d 1439 383f 0c8e 68be
00000080: 0c80 17be 13ac e3bd 2483 8dbe 81f1 c53e
00000090: 6d55 9a3d 4e80 8ebd aa71 2c3f 30e2 a5bd
000000a0: 74e3 1abe b298 bcbd 2399 e5bd aa3a d3bd
000000b0: ab23 cd3e 4ecf 36bd 9c0a 0a3e fb95 0dbd
000000c0: 2150 7dbe 1793 a03d 273a 8abd 6d06 11be
000000d0: f9c7 873e 3da0 13c0 7d20 e13c 3b06 e6be
000000e0: ad9f 453d 36ad 823d 6cdd 153d 67a5 ae3e
000000f0: 9d21 61bf 34b8 3f3d 64d3 06be 04a1 c4be
00000100: 6ac9 8abf 64ee b83e efb5 aabc 875c c5bb
00000110: 2935 293f 572d 7ebe 256b 0abf 11ed 183d
00000120: b27c 37bf 3d1b 57bd 6588 d23d 1d55 11be
00000130: 4fcd 24bf 438b ac3d c9f0 8c3d c626 91bd
00000140: 701a 10bf 630a 223f 9d22 05bf d2bd 213d
00000150: 2545 1ebf daa9 673d 6d78 9e3d f791 58be
00000160: d6bc dbbf 1b3a dabc 3355 833f f74c 22bd
00000170: d9f3 fe3c 6397 1ebf a20a 26be cf2f a9bd
00000180: e120 cbbe 1eaf 693a fac3 a9be 605e 2ebe
00000190: 1098 84bd ca07 7a3e c9f6 b13d fbdd 8e3f
000001a0: 903c 1bbd a15b 1b3e 9f03 0abc bf5a d8bd
000001b0: 7ea9 9b3d 02c3 bdbc 3cdc b93e 8d4f 183e
000001c0: 3731 8fbd fff1 97bb 0b8d 3fbe 41d1 80bd
000001d0: dd92 afbc 11d9 aa3d 4e11 c639 9b48 91be
000001e0: 581a fabd 3dcb 093d 4c69 0cbd 9418 11be
000001f0: 84f1 1d3c d8ef 1fbe 4d80 9fbd c2ea cabd
00000200: cb31 b53d e0d7 963d 5214 06bf b6f4 96be
00000210: 44d8 fa3d 2127 3a3c 1305 babe 46a7 23be
00000220: 702a aabd bf80 18be f42d 1cbf 804a 0bbc
00000230: b162 bbbe 03b6 b8bc 998b 2bbd 26a0 bebd
00000240: 7910 7d3e 1a5c 17bd d8ce 02be 65e6 393d
00000250: 0064 8a3d bbe6 6f3e 386e 17bc 1e16 69be
00000260: dc48 15be 26da c2bf 35eb a1bd 6aa3 b7be
00000270: 87b3 913c f393 f8bb cf00 97bd c58f 8a3d
00000280: 2a64 48be 73fd f93b fe7d 533d c5b1 b9be
00000290: a31c 173f 9281 2fbf ab22 823d 3693 12bd
000002a0: 52d1 8dbd 05db cf3e 4d5b ca3d ed86 c33c
000002b0: 7962 753d 6967 aabd 330d 03be b2ba 043f
000002c0: e388 d93e 7ab3 37bd 2682 723d 1100 d33d
000002d0: 2c04 1fbe bb3e 46bd ff52 8c3e a7a7 973d
000002e0: 8003 113f 6682 203e cf07 b7bd c69b 0cbe
000002f0: 6692 40be 86b8 923d 365e a93e ce50 95bc
00000300: 13a7 abbb 3ab2 e1bc c21d 1ebd c2da 4bbd
00000310: 1ba7 29bf 4647 c5bd 89ea 7cbe ec71 c5be
00000320: 4dcd ba3d bb79 ec3b bb5c dbbe 9c2f b3bf
00000330: bf30 0fbd dd28 503d d683 febd ed37 283e
00000340: 945c 09bd d8f1 3a3e 2b9e cabd 09f7 6f3c
00000350: a624 553d 4478 3abe 183f 81be 452c 51be
00000360: 7f92 e9bc c33c 043e 58a3 90be 9fde bbbd
00000370: 8530 273e e3a0 debd 9562 3e3e f581 42be
00000380: 27dd dabd e152 0fbd f800 983e 151c 58bd
00000390: 4c93 213e ce84 9dbd 46e4 92be f576 c33e
000003a0: 4a15 f8bd 3c97 203e afd5 4ebe 8be3 7ebe
000003b0: ba76 afbd 939f 59be c48f 47bf b944 b7bb
000003c0: f6eb a5be a9b5 ab3d f91f 84bd 0b29 fd3e
000003d0: 0805 acbe c99c bcbd e036 1d3e 9c6c ea3c
000003e0: 08f0 b3bc e777 a2bd 76b4 6cbd a8f7 b73e
000003f0: efc3 dfbe 981c 40bf b19c 353d dd28 67bc
0.03876931 -0.16601448 -0.2848621 -1.306493 0.06464226 -0.35584053 0.13065292 0.03928819
0.09858687 -0.010764506 -0.19270168 -0.049293738 0.039728757 -0.10993556 -0.009713531 -0.29361737
0.030770835 -0.08127929 0.30394047 -0.23341691 0.14530359 0.09769922 0.15910304 -0.11443798
0.13772224 -0.27417707 -0.16654564 -0.10458257 -0.046501752 0.11508994 0.71962094 -0.22710437
-0.1479494 -0.11116805 -0.27639115 0.38660815 0.07535825 -0.06958066 0.6736094 -0.080997825
-0.15125829 -0.09208812 -0.11210849 -0.10313924 0.40066275 -0.044631295 0.1348061 -0.03456686
-0.24737598 0.07840555 -0.06749373 -0.14162607 0.26519755 -2.3066552 0.027481312 -0.44926628
0.04824798 0.063806936 0.036588117 0.34110567 -0.87941915 0.04680653 -0.13166577 -0.38404095
-1.0842717 0.36119378 -0.020838706 -0.006022993 0.6609674 -0.24821983 -0.5406974 0.03733546
-0.71674645 -0.05251621 0.102799214 -0.14192624 -0.64375776 0.084249996 0.068818636 -0.070874736
-0.5629034 0.632971 -0.5200594 0.039487667 -0.61824256 0.056558467 0.07737813 -0.21149431
-1.7167003 -0.026639035 1.0260376 -0.03962418 0.031122135 -0.6194975 -0.16214994 -0.08261072
-0.39673522 0.0008914339 -0.3315733 -0.17028189 -0.06474316 0.24417034 0.08689649 1.1161493
-0.037899554 0.15171672 -0.008423715 -0.105641834 0.076006874 -0.023164276 0.36300838 0.14874096
-0.06991809 -0.0046370025 -0.18706147 -0.06289912 -0.021432335 0.083421834 0.00037778396 -0.28375706
-0.12212056 0.03364109 -0.034280106 -0.14169532 0.009640101 -0.15618837 -0.07788143 -0.09908058
0.08847388 0.07365394 -0.52374756 -0.29483575 0.12248281 0.011361868 -0.36331996 -0.15981779
-0.083088756 -0.14892863 -0.6100762 -0.008501649 -0.36598733 -0.022547727 -0.041881178 -0.0930789
0.24713315 -0.03695307 -0.12774217 0.045385737 0.06757355 0.2342786 -0.009242587 -0.22762343
-0.14578575 -1.5222824 -0.0790619 -0.35866863 0.0177858 -0.0075859963 -0.07373201 0.06765703
-0.1956946 0.0076290905 0.051633827 -0.3626844 0.5902807 -0.68557084 0.06354269 -0.035784923
-0.0692469 0.40596786 0.098806955 0.023868049 0.059908364 -0.08320505 -0.12798004 0.51847374
0.4248725 -0.044848897 0.05920615 0.10302747 -0.15528935 -0.04839967 0.2740707 0.07405024
0.56645966 0.15674743 -0.08937036 -0.13731298 -0.18805847 0.07164101 0.3307969 -0.018227007
-0.0052384227 -0.027550805 -0.038602598 -0.04976917 -0.6627061 -0.09632735 -0.24698843 -0.38563478
0.09121189 0.00721666 -0.42844185 -1.3998904 -0.034958597 0.05082022 -0.124274895 0.16427584
-0.033535555 0.18256319 -0.098934494 0.0146463 0.052036904 -0.1820994 -0.2524345 -0.20427044
-0.028512238 0.12913804 -0.2824962 -0.09173321 0.16327102 -0.108705305 0.18592294 -0.18994887
-0.10686713 -0.03499115 0.2968824 -0.052761156 0.15778846 -0.07691346 -0.28689784 0.38176695
-0.121134356 0.15682691 -0.20198701 -0.24891488 -0.08567567 -0.21252279 -0.77953744 -0.005592909
-0.32406586 0.08384258 -0.06451411 0.49445376 -0.3359759 -0.09209592 0.15352964 0.028616242
-0.021965042 -0.07933026 -0.05778929 0.35931134 -0.43704173 -0.7504363 0.044338886 -0.014108864

fc2.bias f4 [7]
00000000: 6686 2abf 40b2 c9be 0c78 903d df91 94bd
00000010: 9053 aab8 9d69 7c3f aa8a 04bf
-0.66611326 -0.39393806 0.07054147 -0.07254385 -8.1217964e-05 0.98598653 -0.51774085

localization.0.weight f4 [8, 1, 7, 7]
00000000: 9233 313b f2fd 8dbd 0466 ad3c 2a53 ef3d
00000010: 706f 4f3d c32f dcbd 3f9a f13d b44c b83d
00000020: 23b2 febd 9d1c cbbd 901a 1bbe b376 81bd
00000030: 8a36 16be 0b3c 94bc 0274 c1bd dfe4 56bc
00000040: 67f6 823d 5e0d feba 9cba c63c 8b1f 20be
00000050: 051c 8a3d 9398 f13d 572c 5c3a 90b3 9abd
00000060: d9d1 a4bd bfe8 bf3d 13e5 833d 5137 b9bd
00000070: 50e2 f7bd fcbc 2d3d 810a eabd ca35 f93d
00000080: e76b a73c 2d33 19bd 8d71 a13d 4900 7d3d
00000090: 6ccd a0bd 2147 aabd e880 e8bc ffe9 e23d
000000a0: 0c05 833d a42a 093d 8b65 ff3d 91b6 c43c
000000b0: fedd 2dbd 27b5 90bc 6712 a2bd 274f a8bc
000000c0: bf5f a3bd ebcb 263e 5e7d 1b3d f47d 25bd
000000d0: 5158 fd3d 7530 973d 622c cb3c ff07 8bbd
000000e0: 1dcb 173c f906 4fbb 419e 3dbd ce3e 09bb
000000f0: 2832 babc ab70 603d 2de6 42bd 5661 a83d
00000100: 54e9 12bd 6f87 113d 8623 d03d 069b 04be
00000110: cc1b 23ba 4c6d c63d e446 8c3d 3d96 79bd
00000120: a2df 993c 582e 13bd 4633 2d3d 24b1 9abb
00000130: 79a2 fb3d d585 863d e377 6a3d 15cf 7fbd
00000140: 2175 a3bd bfe8 01bc e61e 04be 8bc1 aabd
00000150: bad7 eb3d b777 ec3c b4b2 5a3c 142e 0f3e
00000160: 0a55 b83d 2c61 c0bd 638e ba3d d323 b4bc
00000170: 568c 563a 6687 423d 96de 08bc 3584 b8bd
00000180: a832 d73d 336b d83d cadd 923d 1be9 3dbd
00000190: 8a16 d83d 4bb7 703d 2b3a b53d 149e 8fbd
000001a0: f7d3 c1bd 11df 8cbd e811 12bd 8d61 da3d
000001b0: afea 0d3c d3e7 f53d 2f96 f13c 491b 9d3c
000001c0: 0ba8 3fbd c2f2 b23d 852c 163c ee1a 483d
000001d0: 4c51 d1bd bc24 753d a8fc 81bd 3109 e63d
000001e0: 17dd 763d 7c64 fa3c d57b 8bbd 08cd abbd
000001f0: c81f ebbd 5694 6cbd 79d6 f5bd 6ab3 76bd
00000200: 1fe5 0c3e c93f 0d3d ba97 a4bd 4cbb 8bbd
00000210: 52cf 99bc 3605 1bbd 20f4 bdbd c1cc 013e
00000220: 1bb9 303d 43b8 203e 935c eabd d237 323d
00000230: 86c5 013e 6b4c 7b3c b397 013e 1292 adbd
00000240: dd82 fb39 f013 253c 2b4d df3c 2bc7 8e3d
00000250: 9a02 db3c cbe0 e03d d532 c6bd 5596 0f3d
00000260: bdd1 2e3d bbb9 5f3d 6fe3 2b3d fa9d 27bd
00000270: 77cc e03d e688 de3c 577c eebd bf45 6fbd
00000280: 680a cfbd e6a8 0ebe 4b75 3bbd 2fcd 453d
00000290: 12d0 9b3d 226f 4cbd 1d56 02bd 9ff7 03be
000002a0: 4bd6 00be 81cf f9bc 4038 01bd 6d67 0d3d
000002b0: f1ed 943d bca2 ae3d 22c6 d7bc 9d84 d73d
000002c0: f739 083d 86cf b83d bbbb 9c3d d196 99bd
000002d0: 89f8 e6bd 879b 0d3e 2131 2b3d 516a 9e3d
000002e0: 6ae9 4ebb fccd 10be 1415 5fbd 3ee3 86bd
000002f0: 26ec c3bd b8cb 333d 6c24 963d d176 8cbc
00000300: efd4 72bc 5ea5 85bc cb07 7c3d 8e6e a6bd
00000310: fc1e babd 1d16 e2bd 5d26 873d 8df8 a8bc
00000320: 80ad 4e3d b08e 873d 8874 953d b417 ef3c
00000330: bce3 693c d4c4 f63d d80b dbbb 2179 a13c
00000340: aa89 01be 0f04 83bd 30c2 afbd a08e e1bd
00000350: 95bf 433c ba94 39bd 2687 6cbd a771 d5bd
00000360: 608d f63d f0f0 e73d 4e79 eabc 9bb3 8d3d
00000370: 3d8b b13c cb64 cfbd 684d dcbc d17b 0d3e
00000380: f5b2 dc3d 7438 f83d ca1a 623d 14b3 e2bd
00000390: f6d2 66bd 065d 8dbd 81f2 c63d 53ad ac3d
000003a0: 06e4 debd c25a 9dbd 4f31 d43d 71b3 88bd
000003b0: 31fb ae3d 8536 dcbd b1d8 afbd 7e5c 0a3d
000003c0: 4134 1b3d 4d1b b23b ab88 3e3d cf5e bebc
000003d0: 607d bf3d 1766 023e 0006 0a3e 8ed0 c63c
000003e0: d7bf 67bd 8a0f 773d 85e0 ae3d 8286 023e
000003f0: c55b 003e f2c0 dfbd 794b 023d f6cb 3abd
0.0027038795 -0.06933202 0.021166809 0.11685784 0.050643384 -0.10751297 0.11796998 0.08999005
-0.12436321 -0.09917567 -0.15146852 -0.06321468 -0.14669243 -0.018095037 -0.09445955 -0.013116091
0.06394654 -0.0019382646 0.024258904 -0.15637033 0.067436256 0.11796679 0.0008398941 -0.0755378
-0.08047838 0.09370565 0.06440177 -0.09043754 -0.121037126 0.042416558 -0.11427785 0.121684626
0.020437194 -0.03740232 0.07882986 0.06176785 -0.07851681 -0.08314348 -0.02838178 0.110797875
0.06397447 0.03348793 0.1247054 0.024012836 -0.042448036 -0.017664505 -0.07913666 -0.020545555
-0.079772465 0.16288726 0.037961356 -0.04040332 0.12370361 0.07382289 0.024801437 -0.067886345
0.009264735 -0.003158985 -0.0462935 -0.0020941976 -0.022728994 0.05479495 -0.047582794 0.0822169
-0.03586705 0.03552955 0.101630256 -0.12949762 -0.00062220986 0.096888155 0.06849459 -0.060934294
0.018783394 -0.03593287 0.042285226 -0.004720824 0.122868486 0.06568495 0.05724324 -0.06245335
-0.07981325 -0.007929026 -0.12902412 -0.08337697 0.11515756 0.028865678 0.01334827 0.13982421
0.09000595 -0.09393534 0.09109189 -0.021989739 0.0008184364 0.047492407 -0.00835385 -0.090095915
0.10507709 0.10567322 0.07171209 -0.046364885 0.10551174 0.05876855 0.08848985 -0.07012573
-0.09464257 -0.06878484 -0.035661608 0.106631376 0.00866191 0.120071076 0.029490558 0.01917805
-0.046791118 0.08737709 0.009165888 0.048853807 -0.10220584 0.059849486 -0.063470185 0.11232222
0.06026944 0.030565493 -0.068107285 -0.08388716 -0.11480671 -0.05775865 -0.12003798 -0.060229696
0.13759278 0.03448466 -0.08036752 -0.068228334 -0.018775616 -0.037846766 -0.09275079 0.12675764
0.04314528 0.1569529 -0.114434384 0.043510266 0.12673005 0.015338044 0.12655525 -0.08475126
0.0004797195 0.010075554 0.027258476 0.06971582 0.026734639 0.10980376 -0.09677664 0.035055477
0.04268049 0.054620486 0.041964944 -0.040922143 0.109764986 0.027164888 -0.1164481 -0.058416124
-0.10109407 -0.13931617 -0.045766156 0.04829138 0.07608046 -0.049910672 -0.031820405 -0.12887429
-0.12581746 -0.030494453 -0.031547785 0.034522463 0.07271946 0.08527133 -0.026339594 0.10523341
0.033258405 0.09023957 0.07652994 -0.07499469 -0.11277873 0.1382886 0.0417949 0.07735122
-0.003157223 -0.14141077 -0.05446346 -0.06586312 -0.09566526 0.043895453 0.07331166 -0.0171465
-0.014821275 -0.016314205 0.06153087 -0.081265554 -0.09087941 -0.11039374 0.06599114 -0.02062633
0.05045843 0.06619012 0.07297617 0.029186107 0.0142754875 0.12049261 -0.0066847615 0.01971108
-0.12650171 -0.063972585 -0.0858196 -0.11013532 0.011947532 -0.045307852 -0.057746075 -0.10422068
0.12038684 0.11325252 -0.028622296 0.06919023 0.02167284 -0.101266466 -0.026892379 0.13816763
0.10776321 0.121201426 0.05520133 -0.11069313 -0.05635353 -0.069025084 0.09714223 0.084314965
-0.10883336 -0.07683326 0.10360967 -0.06674851 0.08544005 -0.10752586 -0.085862525 0.033779614
0.03789163 0.0054353834 0.046517055 -0.023238568 0.09350085 0.12734257 0.13478851 0.024269368
-0.056579437 0.060317554 0.085389175 0.12746623 0.12535007 -0.10925473 0.031810258 -0.04560467

localization.0.bias f4 [8]
00000000: 3d12 7c3d 3cce f5bd 2a20 38bc 5118 fabc
00000010: 5fa8 b83d 4fb4 1cbe 904a 1c3c 54a4 06be
0.06154083 -0.12002227 -0.011238137 -0.030529173 0.09016489 -0.15303157 0.009539261 -0.13148624

localization.3.weight f4 [10, 8, 5, 5]
00000000: 9fa4 a3bd 5f32 953c 08b4 65bd 7e84 96bd
00000010: bfe6 42bd 6eee e4bb c32e a4bd a43b 7dbc
00000020: 6277 7abd 8074 4ebd dae1 42bd ff45 32bd
00000030: bf0f 63bc ff9d 10bd 0dab 0cbd 4bff 043d
00000040: 5e2a 323d a184 143d 0b6e a6bb 6037 b0bd
00000050: ad6b 8dbd c728 113b 1e5f 88bc aa86 96bd
00000060: 3df4 5abd 285f d5bd 238d 7d3c 2a77 8fbd
00000070: 1de9 603b ec98 b3bd 5696 90bd 33aa 203b
00000080: c110 7bbd 8603 bbbd 8dbe 1f3d 71e1 e1bd
00000090: 5ffa ecbd f45f 283d 0350 9fbd 9a2f cabc
000000a0: 69a8 debb be84 debc 5b5a 9e3b 7d13 663b
000000b0: 5839 1fbd bb06 d6bc f38d debd 2eb6 933c
000000c0: 5629 bfbd 3467 2a3c 35c2 6abd 8ae7 a8bd
000000d0: 6a39 b8bd 8edc 69bd fd8c 363d dd0e f6bc
000000e0: dc9e 88bd 3faa 2f3d a9e2 2abd d130 113b
000000f0: 6ee3 8e3c c37a 68bd 7fce 6ebc dfab 44bd
00000100: e7af 05bd 762a 283d 9146 83bc 9316 f3bc
00000110: e312 b5bd 131d 94bd 8da2 bc3b ba41 d1bd
00000120: 94f2 6fbd 042d 43bd de2b a7bd 81b9 be3b
00000130: 9db1 32bb 17d3 47bd 9d40 49bd c640 9d3c
00000140: ece4 78bd f555 bdbc f44b 57bd f1da 9dbd
00000150: 7a07 95bd 88a0 9e3c 73b5 f83c f053 403d
00000160: c393 873c 987b 8abc a891 77bc 7801 6c3c
00000170: 6651 243d 73d6 86bd 1ad8 7ebd bb19 9b3c
00000180: d36b e4bb 6f87 963b db2e 6cbd 8bd5 d83c
00000190: e589 66bc 8146 4ebd 7e59 37bc 0a3f 143d
000001a0: ab5b 463d a852 b4bd 14f6 a8bd ec7d f0bc
000001b0: 1e42 d7bc 8467 583c c1f6 47bd 20c6 bfbd
000001c0: 53c8 78bd edaa b3bd eebc 343b fef6 01bc
000001d0: 08be 27bd 5b2c 1fbd 68c3 f73b 471e e83c
000001e0: 3f37 f7bc a6b7 01ba ea43 6abd edf4 23bd
000001f0: 0428 343d b838 9f3c f869 58bc f44f 8fbd
00000200: 1eb1 a0ba e40e bebc 0ef3 8fbc 1c73 bebd
00000210: 0536 6abd 9bff a43c df21 7dbd fc5a 1e3c
00000220: 0148 5bbd ae04 d83c 7a10 403d 95ef 5d3d
00000230: 14e3 e0bc eacb c0bd 5547 133d 51c6 40bd
00000240: 4bf4 b7bc 93e9 97bc 43c4 0abd bb3c 71bd
00000250: b93e 2cbb 0041 e1bc d488 dbbb 286f 8c3b
00000260: 90ae a0bd a691 97bd bae9 7b3c 8886 88bd
00000270: 15b8 44bd 008f 5bbd f017 9fbd 578d adbd
00000280: a734 2b3d cae5 49bd f3f6 93bc 6616 9bbd
00000290: e531 afbd 391b b83c a7bf 343c a416 c8bd
000002a0: a7ec 6cbd d1e4 a6bd 6c35 c5bd 4a3b 403b
000002b0: 2387 cabd 1429 87bc 5db3 463d 9638 32bd
000002c0: 782e 033c 7bd2 283d 2fcb bcbc db27 27bc
000002d0: eff3 113d 007d 673d 504a 2b3b ab7f 343d
000002e0: 35af 6abd 066a 19bd ec0c b2bd acaf 813c
000002f0: 37c2 c3bc 5da1 5f3d 1a6a 4e3d a74e 473b
00000300: d464 67bd a6a5 49bd 63ca 88bc 467e 96bd
00000310: 77e8 b2bc 782c c4bc d3c4 c53b 2c5a 2fbd
00000320: 0c5c b2bd f2dd e4bc 2bf6 943b 83f6 0ebb
00000330: 8e1b c4bc 026a 93bd 083b 4ebd 5bfb 58bc
00000340: 4ff3 acbd 3d00 1bbd b48d 9ebd 88da 883c
00000350: 6524 933c 23b9 a4bc 03eb e23b 7f9c a8bb
00000360: 5e71 5fbd 5d55 72bc 4f0d e9bd cd4f c8bd
00000370: a8f3 88bc 2fd5 02bd adc6 dfbd 735b eebd
00000380: 28d7 c3bd c1d4 e2bc 9bf5 8c3d f01d 6b3d
00000390: 66eb bfbd 4066 bbbd 6174 153d e383 17bd
000003a0: 9901 8bbc ef71 1c3d db13 a4bd e334 b5bd
000003b0: 9037 353c 2a2a 47bd 3f61 bd3d 7c0e 12bd
000003c0: e1c8 b0bd f28a 993d 7c3e e4bc e2e4 c1bd
000003d0: 8ba9 783d 19d8 6c3d cb23 693d 38c1 75bd
000003e0: 3cb2 9bbd 5203 17bc 40e9 14bd 531e 77bd
000003f0: 2cba a2bd 2022 bcbd 6312 03bc 0f6d e33c
-0.07990383 0.018212495 -0.056079894 -0.0734949 -0.047583338 -0.006986431 -0.080167316 -0.015456114
-0.06114901 -0.05040407 -0.04757867 -0.043523785 -0.013858735 -0.035306927 -0.034342814 0.03247003
0.043497436 0.036259297 -0.005079036 -0.08604312 -0.06905303 0.002214955 -0.016646918 -0.07349904
-0.05345558 -0.1041854 0.015475544 -0.070051506 0.0034318634 -0.08769402 -0.07059924 0.002451551
-0.061295275 -0.091315314 0.039000083 -0.11029328 -0.11571192 0.041107133 -0.07778933 -0.024680901
-0.0067949784 -0.027162906 0.0048325486 0.003510683 -0.038873047 -0.026126256 -0.108669184 0.018031206
-0.09334056 0.010400582 -0.057314117 -0.082472876 -0.08995326 -0.057095103 0.04456805 -0.030036384
-0.06670925 0.04288697 -0.041720066 0.002215434 0.017442431 -0.0567577 -0.0145756 -0.04801547
-0.032638457 0.04105612 -0.01602486 -0.02967385 -0.08841493 -0.07232108 0.0057566823 -0.102176145
-0.05858095 -0.047650352 -0.08162664 0.0058204536 -0.002726651 -0.048785295 -0.049133886 0.019195925
-0.060765192 -0.023112277 -0.05256267 -0.077077754 -0.07276817 0.019363657 0.03035996 0.04695505
0.01654995 -0.016904637 -0.015110411 0.014404647 0.04011669 -0.06583872 -0.06221781 0.018933168
-0.0069708615 0.0045937817 -0.057661872 0.026469013 -0.014070963 -0.050360207 -0.01119077 0.03619293
0.048427265 -0.08804828 -0.08250061 -0.02935692 -0.026276644 0.013208274 -0.048819307 -0.09363961
-0.06073792 -0.08772836 0.0027578431 -0.007932423 -0.040952712 -0.03886066 0.007561136 0.02833475
-0.03017771 -0.0004948325 -0.057193674 -0.0400285 0.043983474 0.019436225 -0.013208859 -0.06997672
-0.0012259816 -0.02320046 -0.017571952 -0.09299299 -0.057180423 0.020141413 -0.06179988 0.009665247
-0.053535465 0.026369419 0.046890713 0.05418356 -0.02745203 -0.094138935 0.0359567 -0.04706413
-0.022455355 -0.018543994 -0.033878576 -0.058895808 -0.0026282503 -0.027496815 -0.006699661 0.004285712
-0.07845795 -0.07400827 0.015375549 -0.06666285 -0.048027117 -0.053603172 -0.077682376 -0.08474224
0.04179826 -0.04929141 -0.01806209 -0.075726315 -0.085544385 0.022473918 0.011032022 -0.09769943
-0.057842877 -0.08149112 -0.0962933 0.0029332214 -0.098890565 -0.01649908 0.048510898 -0.043510996
0.0080066845 0.041216355 -0.023046104 -0.010202373 0.035633024 0.056515694 0.0026136823 0.044067066
-0.057295997 -0.037454627 -0.08693871 0.015830837 -0.02389632 0.054597247 0.050394155 0.003041187
-0.05649264 -0.04923024 -0.016698068 -0.073483035 -0.021839364 -0.023946986 0.006035426 -0.042810604
-0.08708963 -0.027937863 0.004545947 -0.0021814413 -0.02393892 -0.07197954 -0.050349265 -0.013243522
-0.08444845 -0.037842024 -0.077418715 0.016705766 0.01796169 -0.020107811 0.0069249882 -0.005145609
-0.054551475 -0.01479086 -0.113794915 -0.09780846 -0.016717747 -0.03194159 -0.10926566 -0.11638536
-0.09562522 -0.02768934 0.06882783 0.057401597 -0.093710706 -0.09150362 0.03648794 -0.03699101
-0.016968535 0.038194593 -0.080116 -0.08847978 0.01106061 -0.048624195 0.09247064 -0.035658345
-0.086320646 0.07497205 -0.027861826 -0.09467484 0.060708564 0.057823274 0.0569189 -0.05999872
-0.07602355 -0.0092171 -0.036355257 -0.060331654 -0.07945666 -0.09186196 -0.007999989 0.027761964

localization.3.bias f4 [10]
00000000: 6bba 333d 164c f3ba 86e1 afbd 37b7 5abd
00000010: 39b2 ba3c 71e9 2abb 69f0 463d 0aff c1bd
00000020: 5add 5cbd 9aa5 0e3d
0.043878954 -0.0018562104 -0.08587937 -0.053397384 0.022790061 -0.0026079083 0.048569117 -0.09472473
-0.053922035 0.0348259
